Model: "sequential_1"
_________________________________________________________________
Layer (type)                 Output Shape              Param #   
=================================================================
flatten_1 (Flatten)          (None, 25)                0         
_________________________________________________________________
dense_1 (Dense)              (None, 32)                832       
_________________________________________________________________
dense_2 (Dense)              (None, 16)                528       
_________________________________________________________________
dense_3 (Dense)              (None, 8)                 136       
_________________________________________________________________
dense_4 (Dense)              (None, 1)                 9         
=================================================================
Total params: 1,505
Trainable params: 1,505
Non-trainable params: 0
_________________________________________________________________
None
[Info] Start Uniform Random Simulation.
Training for 100000 steps ...
   100/100000: episode: 1, duration: 0.172s, episode steps: 100, steps per second: 582, episode reward: -16.737, mean reward: -0.167 [-1.000, 0.351], mean action: 0.000 [0.000, 0.000], mean observation: 1.438 [-1.032, 10.243], loss: --, mae: --, mean_q: --
…
