Model: "sequential_1"
_________________________________________________________________
Layer (type)                 Output Shape              Param #   
=================================================================
flatten_1 (Flatten)          (None, 25)                0         
_________________________________________________________________
dense_1 (Dense)              (None, 32)                832       
_________________________________________________________________
dense_2 (Dense)              (None, 16)                528       
_________________________________________________________________
dense_3 (Dense)              (None, 8)                 136       
_________________________________________________________________
dense_4 (Dense)              (None, 1)                 9         
=================================================================
Total params: 1,505
Trainable params: 1,505
Non-trainable params: 0
_________________________________________________________________
None
[Info] Start Uniform Random Simulation.
Training for 1000000 steps ...
    100/1000000: episode: 1, duration: 0.213s, episode steps: 100, steps per second: 470, episode reward: 58.685, mean reward: 0.587 [0.501, 0.731], mean action: 0.000 [0.000, 0.000], mean observation: 1.427 [-0.779, 10.378], loss: --, mae: --, mean_q: --
…
