Model: "sequential_1"
_________________________________________________________________
Layer (type)                 Output Shape              Param #   
=================================================================
flatten_1 (Flatten)          (None, 25)                0         
_________________________________________________________________
dense_1 (Dense)              (None, 32)                832       
_________________________________________________________________
dense_2 (Dense)              (None, 16)                528       
_________________________________________________________________
dense_3 (Dense)              (None, 8)                 136       
_________________________________________________________________
dense_4 (Dense)              (None, 1)                 9         
=================================================================
Total params: 1,505
Trainable params: 1,505
Non-trainable params: 0
_________________________________________________________________
None
[Info] Start Uniform Random Simulation.
Training for 100000 steps ...
   100/100000: episode: 1, duration: 0.178s, episode steps: 100, steps per second: 561, episode reward: 17.026, mean reward: 0.170 [0.030, 0.452], mean action: 0.000 [0.000, 0.000], mean observation: 1.432 [-0.645, 10.323], loss: --, mae: --, mean_q: --
…
