Model: "sequential_1"
_________________________________________________________________
Layer (type)                 Output Shape              Param #   
=================================================================
flatten_1 (Flatten)          (None, 25)                0         
_________________________________________________________________
dense_1 (Dense)              (None, 32)                832       
_________________________________________________________________
dense_2 (Dense)              (None, 16)                528       
_________________________________________________________________
dense_3 (Dense)              (None, 16)                272       
_________________________________________________________________
dense_4 (Dense)              (None, 8)                 136       
_________________________________________________________________
dense_5 (Dense)              (None, 1)                 9         
=================================================================
Total params: 1,777
Trainable params: 1,777
Non-trainable params: 0
_________________________________________________________________
None
