Model: "sequential_1"
_________________________________________________________________
Layer (type)                 Output Shape              Param #   
=================================================================
flatten_1 (Flatten)          (None, 25)                0         
_________________________________________________________________
dense_1 (Dense)              (None, 32)                832       
_________________________________________________________________
dense_2 (Dense)              (None, 16)                528       
_________________________________________________________________
dense_3 (Dense)              (None, 8)                 136       
_________________________________________________________________
dense_4 (Dense)              (None, 1)                 9         
=================================================================
Total params: 1,505
Trainable params: 1,505
Non-trainable params: 0
_________________________________________________________________
None
[Info] Start Importance Splitting.
Training for 100000 steps ...
   100/100000: episode: 1, duration: 0.170s, episode steps: 100, steps per second: 589, episode reward: 205.975, mean reward: 2.060 [1.486, 3.301], mean action: 0.000 [0.000, 0.000], mean observation: 1.439 [-1.134, 10.411], loss: --, mae: --, mean_q: --
…
