Model: "sequential_1"
_________________________________________________________________
Layer (type)                 Output Shape              Param #   
=================================================================
flatten_1 (Flatten)          (None, 25)                0         
_________________________________________________________________
dense_1 (Dense)              (None, 32)                832       
_________________________________________________________________
dense_2 (Dense)              (None, 16)                528       
_________________________________________________________________
dense_3 (Dense)              (None, 8)                 136       
_________________________________________________________________
dense_4 (Dense)              (None, 1)                 9         
=================================================================
Total params: 1,505
Trainable params: 1,505
Non-trainable params: 0
_________________________________________________________________
None
[Info] Start Importance Splitting.
Training for 100000 steps ...
   100/100000: episode: 1, duration: 0.173s, episode steps: 100, steps per second: 578, episode reward: 176.603, mean reward: 1.766 [1.453, 2.700], mean action: 0.000 [0.000, 0.000], mean observation: 1.431 [-1.482, 10.189], loss: --, mae: --, mean_q: --
…
